homework/01 Introduction/作业HW1/models/model.pth (torch, 193583 bytes, 7 tensors)

net.0.weight f4 [64, 93]
00000000: 9b9a ef3d ac29 ca3c e97b 093d ab18 c83b
00000010: 6701 ad3d 7ed7 313d 9202 91bc 1249 d8bc
00000020: ae9d dc3c f44e ab3b b76c ca3d db18 46bd
00000030: c367 013c 3aa3 cfbd 3bcf 10bd 83c0 7a3d
00000040: 7086 d6bc 20c4 e5bd 31fc 41bd d1e5 a73d
00000050: 50ae c33d 867c 353d 79ed 013c 9208 b63d
00000060: 4153 833d a925 5a3c cb5f b9bd 3e8c a1bd
00000070: 1766 ef3c a379 ad3d d5d0 98bd d5e0 9c3d
00000080: 8313 3d3d 0a3c 8d3c 66ce 54bd 3066 8f3d
00000090: 86a3 153c 19c8 893d a460 b33d 43cb 9a3d
000000a0: f4b0 afbd 8143 05be 70b9 553d 89b7 b7bc
000000b0: cddc d7bd ec52 eb3d d096 023d b8e4 59bd
000000c0: 2371 32bc c0ab 85bd ad88 863d 85f6 7a3c
000000d0: 480c 0f3d 8d54 e1bc 522e 0b3d 8ab0 383c
000000e0: f8d5 88bd ab1a 85bd e848 56bc aaee 8ebb
000000f0: ee0f 5dbd 3180 8c3c 6f44 823d 579c 40bd
00000100: eb98 21bb 1445 42bd 934b 673d 5f59 313c
00000110: 9735 88bd 957e 143e eda2 e83b 751e f23d
00000120: 2429 b7bd f795 12be 7c72 d43d b1d1 873e
00000130: 3ea9 98bd a895 d8bb fdb1 2bbd 1942 d9bd
00000140: 77ea 9b3d 3c01 5c3d b294 b63c 4da5 203d
00000150: 4ff6 cb3d 4dfe 97bd e4df c03b 6336 053d
00000160: fc5f 09bd 280b a2bc 4ccb 503e 76ac b9bd
00000170: d90c 37bc 1fed 67bd fd82 aebc 850b 78bc
00000180: ade7 8ebd e428 ce3c cd7c 543d 0c43 98bc
00000190: 6552 f0bb 11a7 8ebd 1468 87bc 8362 063d
000001a0: 1dc9 653d 1aea c73c 09bc a6bd 3d91 f5bc
000001b0: 01be ee3d 5cbc bebc c572 813d 8049 7abd
000001c0: 4579 653b 2973 9e3c 6632 0a3d fcb2 8e3d
000001d0: 4129 e33c 5a60 c6bd b0c9 b43d 3c97 463b
000001e0: 0bfe 273c 5d8b babd a942 5cbd 5918 8cbd
000001f0: 824b 94bd 197a 8abd 054b 993d 4656 b3bd
00000200: 4d34 f53d 1896 ab3c 0f36 b63d 13b1 133d
00000210: 0d21 c23c 085d 2d3d 0251 84bd 51ba 263c
00000220: ca24 ebbb bdfa 303d e329 c0bd 9b3a 873c
00000230: 10e9 09bc 061b 003d 98d9 a3bd 6197 bf3d
00000240: c665 853d 0a3f ddbd bdd3 853d f4ec fe3c
00000250: 816a 84bc 44d8 77bd 10df 963d 6d81 04be
00000260: 3ffd ffbd 4aab 893d 23a0 7ebd 5834 9bbd
00000270: 52be cebd f268 c43d f19b 7cbc ccc4 803d
00000280: 6cea c33d e711 cb3d 8142 6f3d c762 bb3d
00000290: 7d7c b23d d5b4 eabc cb80 4fbd 67b9 d8bc
000002a0: 42da 513e 97c7 d03c f77a 553d cd41 67bd
000002b0: 4f60 823d 563b a23c 98e8 633d 0976 bebd
000002c0: 117f 7dbd ea08 e0bc 0a3f bb3d d59e d73c
000002d0: 2a6c 10bd 1686 483d 0bf3 86bd 471d 16bd
000002e0: 12eb 9e3d 615b 12bd fde4 edbc e561 6e3c
000002f0: 7157 d3bc 2237 a8bc 36b7 7abc 8fa9 b43d
00000300: 5d99 bf3d f888 5fbd 4f59 6c3d bd87 a2bd
00000310: eb42 c2bd 2833 89bd d15e 2fbd 89ca 82bd
00000320: 7f27 0bbd 92df 6dbd cf3f a13c 5f50 5f3d
00000330: d166 763d a317 5d3d d734 7a3c 6850 69ba
00000340: ff3e e1bd 40bc 3c3c 5a1c 90bd a7f0 713d
00000350: 3588 d23d c9ce a33c a7bf 863d 30d5 4b3c
00000360: 0582 79bd 7563 de3c b092 823d 8705 adbd
00000370: 1144 25bd 4876 ce3d 5809 93bd 7ec8 60bd
00000380: 4497 60bd af55 323d f21c 1b3d 2c19 3abc
00000390: 98e4 9dbd 6a2a 743d ce16 bcbd 0afc a7bd
000003a0: 8ca8 b63d 53dc 3bbd 30b4 acbc 4217 883d
000003b0: fa1f bcbd dd28 ad3d a4f9 8cbc 305c b03d
000003c0: fe89 24bd 25cb 3a3d 4c18 a03d 1ca9 0ebd
000003d0: b6f8 3cbd e81c 76bb d27c 20bd 6f05 5bbc
000003e0: ace3 e5bc a7b3 213d 5bb6 863b b381 87bd
000003f0: 5b9f dfbd 1f25 8a3d 6e13 173d 78c8 52bc
0.116994105 0.024678074 0.033565436 0.0061064563 0.08447533 0.0434184 -0.017701421 -0.02640203
0.026930656 0.005227918 0.09884017 -0.048363548 0.007898274 -0.10138555 -0.03535388 0.06121875
-0.026187152 -0.112190485 -0.04735965 0.08198131 0.09554732 0.044308208 0.007930153 0.088883534
0.06412364 0.013314643 -0.09051474 -0.07888077 0.029223485 0.08470466 -0.074617065 0.07660071
0.046161186 0.017240543 -0.05195465 0.070019126 0.009133225 0.06727619 0.08758667 0.075583
-0.08578673 -0.13014032 0.0521788 -0.022426384 -0.10540161 0.114904255 0.031882107 -0.05319664
-0.010891232 -0.06526899 0.065690376 0.015317564 0.03492382 -0.027506137 0.03397972 0.011272559
-0.06681436 -0.06499227 -0.013078906 -0.004361947 -0.05397027 0.01715097 0.06360709 -0.047024097
-0.0024657797 -0.04742916 0.056468558 0.01082453 -0.066508465 0.14501412 0.0070995004 0.118222155
-0.08943394 -0.1431502 0.10373399 0.2652717 -0.074541554 -0.0066096373 -0.04191779 -0.1060831
0.0761308 0.053712115 0.0222877 0.039220143 0.09959089 -0.07421551 0.005886065 0.03252257
-0.033538803 -0.01978071 0.20390052 -0.090660974 -0.011172497 -0.05662262 -0.021302694 -0.015139465
-0.069777824 0.025165983 0.05187683 -0.018586658 -0.007334041 -0.06965459 -0.01652912 0.03280879
0.0561 0.02440362 -0.081413336 -0.029976482 0.11657334 -0.023283176 0.06320719 -0.06110525
0.003501491 0.019342022 0.03373947 0.06967732 0.027729632 -0.09686346 0.08827531 0.0030302545
0.01025344 -0.09108613 -0.05377451 -0.068405814 -0.072409645 -0.067615695 0.07485012 -0.0875669
0.11972866 0.020945594 0.088970296 0.036057543 0.0236974 0.04232505 -0.064607635 0.010176257
-0.0071760165 0.043207873 -0.09382989 0.016507437 -0.008417383 0.03127577 -0.08000487 0.09355045
0.06513552 -0.10803039 0.065345265 0.031118847 -0.016164066 -0.06050898 0.073667645 -0.12939997
-0.12499475 0.06722124 -0.062164437 -0.07578343 -0.100948945 0.09590329 -0.015418039 0.06287536
0.09566197 0.09915524 0.058413032 0.091497 0.087151505 -0.02865068 -0.050659936 -0.026455594
0.20493415 0.025485797 0.05211922 -0.056459237 0.06366026 0.019803684 0.05564174 -0.09299857
-0.061888758 -0.027348 0.09142883 0.026320854 -0.035259403 0.048956 -0.065893255 -0.036649015
0.0775968 -0.035731677 -0.029039854 0.014549707 -0.025798531 -0.020534102 -0.01530247 0.08821403
0.093554236 -0.054573983 0.05770236 -0.07936046 -0.0948542 -0.066992104 -0.042815033 -0.06386287
-0.033973213 -0.05807454 0.019683747 0.054520007 0.060156647 0.05397762 0.015271387 -0.0008900226
-0.10998344 0.011519492 -0.07036658 0.059067395 0.10279886 0.019996064 0.065795235 0.012440965
-0.060915012 0.027147034 0.06375635 -0.0844832 -0.040348116 0.10081154 -0.071795166 -0.054878704
-0.05483176 0.043538745 0.0378694 -0.0113585405 -0.077096164 0.05961076 -0.09184037 -0.082023695
0.089188665 -0.045864414 -0.021082014 0.06645061 -0.091857865 0.0845506 -0.017208882 0.08611333
-0.040170662 0.04560389 0.07817134 -0.034829244 -0.046135627 -0.003755385 -0.039181538 -0.013367995
-0.028062664 0.03947797 0.004111094 -0.06616535 -0.109190665 0.067453615 0.036883764 -0.012865178

net.0.bias f4 [64]
00000000: 9a88 213d 673a 473d f71a b5bd 320b b33d
00000010: 0501 b23d cb9e a4bd ee63 913d 9a4b 8e3e
00000020: ca08 823d 8771 a3bd 7680 15be b7c6 213d
00000030: 6724 0dbd a87d 0b3e 311d 4f3d 4101 08bd
00000040: 1a9d 1f3d cb95 0b3e 5ebd 30be 8678 9bbd
00000050: 66e6 84bd 6289 313d 4fc4 833d 54fb eebd
00000060: 7e8f 91bd 6e71 1f3d 3f97 a83d 7c75 f93d
00000070: 2779 99bd 5b3e 81bd 2af5 283e 715b d53d
00000080: de0a 893d 99a8 443e 9fc5 79bd 3764 15be
00000090: 6fb2 e93d ded9 6a3e 75a7 823d 3415 02be
000000a0: d3e3 25be bb29 bf3c c5a5 bc3d 49af d53d
000000b0: e5c4 553e 3cab b33d 7f53 273d 1625 ce3d
000000c0: 6c97 e7bc f50b 14bd c433 fd3c 2f4f 60be
000000d0: f3bf 143d d682 873d df73 9c3d f5df c1bd
000000e0: 1bfb 893d 247d 4fbd 789b 123e 23e8 afbb
000000f0: d580 243e dc24 febc 0ba0 063d 2ef8 6fbd
0.039436914 0.04863968 -0.08843034 0.0874237 0.08691601 -0.080381 0.07099138 0.27792054
0.06349333 -0.07980638 -0.14599785 0.03949615 -0.034458544 0.13622153 0.05056495 -0.03320432
0.038968183 0.1363136 -0.17259738 -0.075913474 -0.064892575 0.04334391 0.06433927 -0.11669031
-0.07107447 0.038926534 0.08231973 0.121806115 -0.07493811 -0.063107215 0.16499773 0.10417832
0.06691526 0.1920494 -0.06097948 -0.1458901 0.11410987 0.22934672 0.06379596 -0.12703401
-0.1620019 0.023335328 0.092113055 0.104338236 0.2087589 0.08772895 0.040851112 0.10065667
-0.028270446 -0.036144216 0.030908473 -0.21905206 0.03631587 0.06616752 0.07639288 -0.094665445
0.06737348 -0.050656453 0.14317119 -0.005368249 0.1606477 -0.031023435 0.032867473 -0.058586292

net.2.weight f4 [128, 64]
00000000: 1c12 d9bd 7f6e 86bd 7baa ce3d 6822 c23d
00000010: fdb3 c73d 5e7a b1bc 0bdb a13b 8f90 a5bc
00000020: 72aa 763d 30fe 77bd 320d 023c e65e 87bd
00000030: c938 8bbc fab6 8abd 9277 9c3b 623c 21bd
00000040: 3104 c4bc e487 eebc c736 953c 3343 7fbd
00000050: e63b febd a40a 2dbd 4650 11bd a63a a43d
00000060: 401f fdbd 25f2 8c3d f15d 053d 56d9 05be
00000070: 75b4 eebd 71e0 0cbe f98d 9dbc 7b91 9a3d
00000080: 308e bd3b a74b eb3b 262d 8bbd 356c 993d
00000090: 91b4 243c fb23 e2bd cadf 873d 0b96 1abd
000000a0: c7f8 db3c 5a19 853c 0dfd 0c3d 6713 6c3d
000000b0: 2ed7 fc3d 9597 50bd 6697 c93d 66b0 b1bd
000000c0: 6402 ed3c 83cc 693d 35d5 b63d 3588 eabd
000000d0: 7c8a 3ebd a67d 2abd d9f6 953c d818 ca3d
000000e0: e0ed 003e 5244 003e 5bf6 d43d 700d 11bd
000000f0: 0e7d 093b c7a2 92bd 5ae5 b03d a132 dd3d
00000100: e83d 913d 928e 86bd e2e7 e2bd a4c7 433c
00000110: 0efe 9cbd 2943 a8bd 4c5e b23d 87e8 f23d
00000120: 5849 1abc 8bce 803d 1ae6 99bd ef5e eabc
00000130: 4c63 70bd 680c 833d c713 ff3d e7df f93d
00000140: 667a 6f3b 7b08 b53d 9749 08bc 3be8 b93d
00000150: 09cc 3d3d 1100 f1bd 62f4 3d3c 1365 edbd
00000160: 9cf1 9bbd 660e a039 2e07 a8bc c907 f0bd
00000170: b050 c3bd 74f2 a3bc d3ec ccbd ad4d 5abc
00000180: ed1a d8bd 77a2 fc3d 7ba2 d93c 7eb9 8ebb
00000190: d2ef cdbd 389d eebd 290c e3bd 8ccf 7b3c
000001a0: 15b6 f5bd 9cd4 d6bd e10f 693d fcec 0d3d
000001b0: 88a2 83bd 3a59 e9bd 8de5 96bd ede3 b63c
000001c0: faf2 87ba 0393 45bd 5f0c fc3c 52fb c23d
000001d0: 26ae a63d 56d0 87ba a953 b63d bf4a dbbd
000001e0: 7e68 ed3d ef1d a73d 9779 8cbd 5b6a ee3c
000001f0: 03a4 433c c531 c9bc eadc b0bd 4ded f5bd
00000200: b38f f5bd 8a0c a1bd e960 753c 6f71 26bd
00000210: c97f d83a b7e6 0abc a729 e4bb 9f6e 11bc
00000220: 3367 c03d 2d8f 1b3d a55a 3c3c afa5 e5bd
00000230: 7763 5c3d 5991 52bd 943b 623c 7fc1 533d
00000240: d7e5 ab3d 9950 f4bc df28 06be e801 e73d
00000250: 8417 44bc be0d 88bd 9063 0e3d b1d8 1b3d
00000260: 3343 f13d 90ba 8c3b e615 963d 60c1 99bd
00000270: 23d8 843d 429f 06be 4462 66bc 1b3a 103d
00000280: 793c f1bd fb90 5f3d 2c1d df3d e077 6a3d
00000290: e9b8 afbd 0bf5 2dbd 0f12 75bd f6a2 933d
000002a0: 2ed7 46bc 240b debd 8c41 a43c 4a28 a63d
000002b0: 15a1 ef3c 4ddb 49bd 8272 ef3d 879f 6e3d
000002c0: d3f7 2abd 55bc 393d 436c 3b3c 3a44 2fbd
000002d0: f66a f2bd a66a 49bd 75ac 263d 8a8a 1d3d
000002e0: 2d77 733d 856d 8fbd fe73 db3d e50a 29bd
000002f0: 7737 c73b 0277 d3bd 23f7 06be b2e9 0bbd
00000300: 8342 b93d d5e0 aabc 02fe 913c f94e db3d
00000310: 6f9d 393d 57d5 83bd e5e9 d1bd 803f dcbd
00000320: 6357 55bd c736 5fbd f42e 05be 7cf4 5bbd
00000330: 8cd0 b03d a465 d1bc d243 783d 9d23 2bbc
00000340: 63e0 dcbd c5ce 113d 6085 b93d f243 edbd
00000350: 8029 4dbc 4f38 dabd 9157 053e 7854 f6bc
00000360: ea42 ddbc 66e5 5cbd c746 a8bd 7b0f 89bd
00000370: 4515 36bd 1ed8 853c b3d1 cf3b 613f 233c
00000380: 45c7 1dbe 734c 6a3d 0d52 ccbd a116 bb3d
00000390: c1a0 70bd 9d78 49bd 6083 523c 331f a33d
000003a0: 28ab c3bd 7e32 023e 207e 803c b2c4 f53d
000003b0: fae7 203e 4620 93bc 75ee 8dbd 6a68 403d
000003c0: 3452 9d3d b2f6 ca3d ecad a53d d3fa 68bc
000003d0: 21d4 8b3d 87d5 75bc aa6d 113d 217a 0e3d
000003e0: 94f8 41bd c229 ce3d 8dac b5bd 1254 123e
000003f0: 2c0d c1bb d860 3f3c 7017 043e bbc0 bebd
-0.10599157 -0.06564044 0.1009111 0.09479219 0.09751127 -0.021664795 0.004939442 -0.020210532
0.060221143 -0.060545146 0.007937716 -0.06609897 -0.01699485 -0.06773181 0.004774996 -0.039364226
-0.02392778 -0.029117532 0.018214596 -0.062319946 -0.124137685 -0.042246476 -0.035476945 0.08018999
-0.12359476 0.06882123 0.032560293 -0.13071188 -0.11655513 -0.13757493 -0.019232737 0.075472794
0.0057847723 0.0071806493 -0.06795721 0.07491342 0.010052816 -0.11042019 0.06634481 -0.03774075
0.026852025 0.01624744 0.034421016 0.05763569 0.1234573 -0.05092581 0.0984333 -0.086762235
0.028931804 0.057079803 0.08927385 -0.11451761 -0.046518788 -0.041623734 0.018306183 0.0986802
0.12590742 0.12526062 0.10398551 -0.035413206 0.002097908 -0.071599536 0.08637495 0.10800672
0.07091886 -0.06570162 -0.110793844 0.0119494535 -0.076656446 -0.08215935 0.08709392 0.11860757
-0.009416901 0.06289395 -0.075145915 -0.028609721 -0.058688447 0.06398851 0.12454944 0.12200909
0.003654146 0.08839508 -0.008318326 0.090774976 0.04633716 -0.11767591 0.01159391 -0.11591544
-0.07614443 0.00030528306 -0.020511236 -0.11720235 -0.09536874 -0.020013072 -0.10006108 -0.013324183
-0.10552011 0.12335675 0.026566735 -0.0043556085 -0.10055508 -0.11651081 -0.11086304 0.015369307
-0.1199762 -0.10489771 0.05689991 0.034649834 -0.06427485 -0.11393972 -0.07368002 0.02232548
-0.0010372095 -0.048235904 0.030767618 0.09520592 0.08138685 -0.0010361772 0.08902676 -0.10707616
0.11592196 0.08160006 -0.06859129 0.029103449 0.011940959 -0.024559865 -0.08635886 -0.12008152
-0.11990299 -0.0786372 0.014976718 -0.040635522 0.0016517575 -0.008477858 -0.006962973 -0.008876472
0.09394684 0.03797834 0.011496221 -0.11213242 0.053805795 -0.051408146 0.01380815 0.051698204
0.08393448 -0.029823588 -0.13101529 0.112796605 -0.011968497 -0.06643246 0.03476292 0.03804845
0.11780395 0.004294701 0.073283955 -0.075075865 0.06486537 -0.1314669 -0.014061514 0.035211664
-0.11779112 0.054581624 0.10894236 0.057243228 -0.08580191 -0.04247002 -0.059831675 0.07208817
-0.012136264 -0.10841969 0.020050786 0.08113153 0.029251615 -0.049281407 0.116917625 0.058257606
-0.04174025 0.045345623 0.011439386 -0.042789675 -0.118368074 -0.049173974 0.04069181 0.0384622
0.059439827 -0.07003311 0.10715483 -0.041270155 0.00607961 -0.10325433 -0.13180213 -0.034158416
0.09045889 -0.020859161 0.017821316 0.10708422 0.045316156 -0.06437176 -0.1024969 -0.10754299
-0.05208529 -0.0544956 -0.13006192 -0.053699955 0.08633527 -0.025561161 0.060611553 -0.010445503
-0.10784986 0.03559758 0.090586424 -0.11585225 -0.012522101 -0.10655271 0.13021685 -0.030069575
-0.027009446 -0.05392971 -0.08216625 -0.06692406 -0.044453878 0.016338404 0.0063421368 0.009963841
-0.15408047 0.057201814 -0.099765874 0.091351755 -0.058747057 -0.04918729 0.012848705 0.07964935
-0.0955413 0.12714574 0.015685141 0.12000407 0.15713492 -0.017959725 -0.06930248 0.046974577
0.076816946 0.09910335 0.080898136 -0.014219957 0.0682757 -0.015004522 0.035504974 0.03478444
-0.047356203 0.100665584 -0.08870802 0.14289883 -0.005891463 0.011680804 0.12899566 -0.09314104

net.2.bias f4 [128]
00000000: 030d 09bc c5f2 7abd 1915 cabd 1350 f6bc
00000010: 38c3 dabd 4812 e73a 5ffe 473c 3f9c 783d
00000020: 8a1a 303e 9f90 bdbd 7242 bebd 11a2 08be
00000030: e3c0 ff3e 5eed 563e 447b e53b 40af 02be
00000040: 5f45 393f 529e ab3d e638 9e3e 662e a03c
00000050: eebb da3d 591f ab3d 5349 503e 74f8 aabd
00000060: 5b4d efbd 8ca6 83bc 0a33 5e3e 1a09 17bc
00000070: a166 c23e 16ce 80bc 0ec0 7a3c 46ab d73d
00000080: 59b9 d83d 1dbc c5bd 5ff7 8ebd 541e a8bd
00000090: 6e51 d83d 07a5 cebd 37c8 b7bd bcf0 5e3e
000000a0: 2eef 3a3c 538b 16bd 1a7e 3fbd c5cc 433d
000000b0: b314 45be e228 363e 98ca c6bb d4a9 bd3e
000000c0: ca80 d43d bbb9 743e 882b 3d3e 611b 023d
000000d0: efb3 6c3b 298b 473d 9bd0 d73d 2ab9 993d
000000e0: 63ff e6bd 2cf9 313d fa53 84bd fcbe 0e3e
000000f0: d675 e9bc 2fec 5e3e fadc 9c3d b12e 083f
00000100: db45 483e 0a8c 0b3c 61d6 29bc 18cd 13bd
00000110: 4597 273d c540 d13d c63c a53d cf7f 283e
00000120: ef3b c5bd 7757 c43e 2f66 b3bd af91 733d
00000130: 5dc2 413d 0505 c1bd c5f6 ce3d 02fe ff3d
00000140: 4de7 9e3e cfc2 c83c 0b94 753e abf2 7fbd
00000150: 1d96 3abd d8e3 abbd 3115 293c eac0 30bd
00000160: a092 803d ad24 133e f480 abbd de61 2d3e
00000170: 39f0 633e 2d4b d03d c860 8dbd 039e 963d
00000180: dfb5 a83e 845c 913c a5d3 843e 5bec a23d
00000190: c50b 86bd 6570 afbd 646e 3f3e f73c c53c
000001a0: f9ac 023f 0148 ba3e 62fa f83d d034 e53e
000001b0: c148 eb3e 5703 b63d 1ffa 4d3d 4ed4 a93e
000001c0: 99c4 e43c efca 82bd c517 0a3e 034d ac3c
000001d0: 25ad f13d ada0 82bc 9e87 bbbd a2b7 e1bd
000001e0: 698e 113d e625 1dbe 24c3 803e 600f 473e
000001f0: b9b3 0a3d eb3f edbd e459 a53e de41 a9bd
-0.008364919 -0.06126668 -0.09867305 -0.03006748 -0.10681766 0.001762935 0.012206643 0.060695883
0.17197624 -0.092561 -0.09290017 -0.13343073 0.49951848 0.20988986 0.00700322 -0.12762165
0.72371477 0.083798066 0.30902785 0.019553374 0.10680376 0.083555885 0.20340471 -0.0834817
-0.11684676 -0.016070627 0.21699157 -0.009218479 0.37968925 -0.01572327 0.0153045785 0.10530715
0.10582227 -0.096550204 -0.06980776 -0.0820891 0.105624065 -0.1009007 -0.08973735 0.2177152
0.011409564 -0.036753964 -0.04675112 0.047802705 -0.19246177 0.17789033 -0.0060666315 0.3704363
0.10376127 0.23898976 0.18473637 0.03176439 0.003611799 0.048716698 0.10537835 0.0750602
-0.1127918 0.04345052 -0.0646133 0.13940042 -0.028498571 0.21769784 0.076593354 0.53196245
0.19557898 0.008517275 -0.010366053 -0.036084265 0.040915746 0.10217432 0.08068232 0.16455005
-0.09630572 0.3834798 -0.08759724 0.059465107 0.0473045 -0.094247855 0.10105661 0.1249962
0.31035843 0.024506954 0.23982255 -0.062487286 -0.045553315 -0.08393067 0.010319994 -0.043152727
0.062779665 0.1436946 -0.08374205 0.16931865 0.22259606 0.10170589 -0.06903225 0.07354357
0.32951257 0.01774431 0.25942722 0.079552375 -0.065452136 -0.085663594 0.18694454 0.024076922
0.51045185 0.3638306 0.12157132 0.44766855 0.45953944 0.08887356 0.050287362 0.33169788
0.027925776 -0.06386363 0.1348563 0.021032816 0.11800603 -0.015945757 -0.09156726 -0.11021353
0.035536204 -0.15346488 0.2514888 0.19439459 0.033862803 -0.11584457 0.32295144 -0.08264516

net.4.weight f4 [256, 128]
00000000: 92b4 c73c 1cc2 ec3c 6f4d 843d fce8 483d
00000010: 31a7 a73d 830a 4bbd 6a0a df3c ba40 45bd
00000020: e873 adbc 4ba0 553d 7291 1bbc a0ee 313d
00000030: 03c9 1e3d a60d 23bd 44b1 aabd 6f7b 953d
00000040: 3335 82bc b8c5 a13d 50f1 933d 3f95 0e3d
00000050: 0dc3 70bd 39c2 89bc e2e2 443c 3abf 6abd
00000060: ce05 8d3d f643 453d a18e 7dbd f086 9c3b
00000070: b8ea b7bc 40b5 cdbb 3335 93bd 2219 a9bc
00000080: 285f 75bd 2eb7 c33c 5a54 23bd 28b8 9f3d
00000090: e9e8 85bd 9b7d 503d d2ac 5abc 5431 6b3c
000000a0: 1ac1 9dbd ae28 d4bc e540 82bd 1080 843d
000000b0: b680 90bc 903d 32bd 4728 62bd 6754 9ebb
000000c0: bb9d 1b3d 9e8e 0fbc 7b8b d3bc 7a29 963d
000000d0: 86a3 abbd 7bfe 90bc 66d4 dfbb 4616 3abd
000000e0: 35e5 ad3d af4c 983d e021 c53b 4e67 9f3d
000000f0: 5bee 893d b1d6 81bd 6625 a7bd 4631 95bd
00000100: ab4c a93d 3b4c 2cbd 98f2 613d 10d2 86bb
00000110: 58ea 14bd ef68 65bd a6a0 743d e77e ebbc
00000120: 3999 983d 5fe4 a1bd 18a9 7cbd b8bb c43c
00000130: ac4c a9bd c0e9 71bd 2a44 9abc c125 aa3d
00000140: c970 1b3d ab36 2b39 732d aebd 194f 6f3d
00000150: 1129 8abc a273 96bc 8c3a ecbb 46d5 95bd
00000160: 34bc 14bd 45cf 9c3d 34d9 00bd 7c98 ab3d
00000170: d327 5d3c 7998 d3bc 0891 83bc 0516 81bd
00000180: 1810 8bbd 6618 25bd 6b26 3ebd 4665 acbc
00000190: a0b2 8dbb 32f3 72bd 2fd0 5dbd 5284 26bd
000001a0: 2b92 26bd c08f d1bc 2373 aa3d 828a 17bd
000001b0: 29f1 22bc 4701 1cbd a8ce bd3c aa12 62bd
000001c0: e1b1 a53d f343 09bd 109d ec3c 8e5c ab3d
000001d0: fbc0 933c 011d b2bd 70c1 97bd 7875 09bc
000001e0: 64c8 c73c bd47 a239 a592 44bc 1a41 87bd
000001f0: 9b90 c33c 96bb a83d db3a eb3b 41a9 82bd
00000200: eb43 b33c 7029 5dbd edaa 97bd e7c2 883b
00000210: eaef 2b3d 0008 3d38 40f9 6e3c 8438 90bd
00000220: 2e98 07bd 3620 a3bc e37b 163d f0bc 393d
00000230: 4e4b 21bd b301 6b3d dec3 3ebd 81cf abbd
00000240: 6fcb a9bd d43c f43c 8a05 e53a f913 1f3d
00000250: de6a e63b 4e25 6b3d 825c 1dbd e878 e1bc
00000260: 0c4b 103d d8fb a8bc 529c 2f3d e252 503d
00000270: a194 cc3c 9499 f43b e1d4 dabc 4017 aebd
00000280: ac45 0dbd 26a1 203d 0f15 b63c e352 abbd
00000290: 1493 07bd 7f76 263d a6bd 20bc 1646 5d3d
000002a0: 8597 aabd 4e40 b23d 9c34 8abd bfd5 24bd
000002b0: 70ca d8bb 2797 aa3d f6aa 3b3d faea e2bc
000002c0: d6b3 0c3c 0164 99bc 99c7 90bd e8f9 48bd
000002d0: af1f e63b 1d13 993d 1066 84bc e0f5 493d
000002e0: 8844 e63c 4c68 da3c 90ad aabc 280d 4bbc
000002f0: eae2 693d c83f b4bd 0e36 083c b56a 93bd
00000300: f925 15bd 8054 0bbd bf92 57bd 9b65 9e3d
00000310: f417 11bd bc18 27bc fdf7 b33d d6d7 00bd
00000320: 0ff4 82bd 00be c93b 378b a33d 28f0 c9bb
00000330: 77ad 3dbd e7c4 6e3d 09a2 343d cd17 a13c
00000340: c72f 44bc 695e 03bd 6c5a 223d c300 1ebd
00000350: 0d46 55bd 3eb2 5b3d 60a3 c43c 2e07 643d
00000360: 33fe ccbc 3dbc 98bd 944f a2bd 453a cd3b
00000370: 4e00 4d3c 4a48 7dbd 3778 ab3d 1f9f 67bc
00000380: bedb a83d b37c aebc bca7 a93c 76e0 8dbd
00000390: 4827 49bd b2cc 90bd 2cce ab3d af89 f9bc
000003a0: 248a 90bc 7e50 703d 1d7c 993d 44b3 af3d
000003b0: 4851 9a3d 1225 e5ba dee1 fb3c 53e7 dc3c
000003c0: 7fab b33d c2d7 dd3c 5853 6bbd 98bc 3b3c
000003d0: f902 9dbd e8b3 23bd 5062 8e3d 1d45 913b
000003e0: f83f 653d dc7a 693c 52ce 8cbb b086 143d
000003f0: e820 a9bd 81cb 15bc 7c0c f93c 7693 cebb
0.024378095 0.028901152 0.06460082 0.049050316 0.08186186 -0.04957057 0.027226645 -0.04815743
-0.021173432 0.05215482 -0.009495126 0.04344046 0.03876592 -0.039807938 -0.08334592 0.07298934
-0.015894508 0.0789904 0.07223761 0.0348103 -0.058779765 -0.016816245 0.012016984 -0.057311274
0.06885873 0.048160516 -0.0619036 0.004776828 -0.02245079 -0.00627771 -0.07187881 -0.020641867
-0.0599052 0.023891058 -0.039875366 0.07798797 -0.06538565 0.050901037 -0.013346868 0.014355022
-0.07702847 -0.025898304 -0.06360034 0.064697385 -0.0176395 -0.04351574 -0.055214193 -0.004831839
0.03799222 -0.00876203 -0.025823345 0.0733213 -0.08380799 -0.01769947 -0.00683074 -0.045431398
0.084909834 0.07436501 0.006016001 0.07783376 0.06734916 -0.06339777 -0.0816143 -0.07284789
0.082665764 -0.042064887 0.055162996 -0.004114397 -0.0363563 -0.056008276 0.05972352 -0.028747035
0.074511 -0.079048865 -0.061684698 0.024015293 -0.08266577 -0.059060812 -0.018831331 0.08307982
0.037949357 0.00016328196 -0.085047625 0.058425043 -0.016865285 -0.018365685 -0.007209128 -0.07316069
-0.036312297 0.07656721 -0.03145714 0.083786935 0.013498264 -0.02582954 -0.016060367 -0.06303028
-0.06790179 -0.04030647 -0.046423357 -0.021044385 -0.0043242723 -0.05931396 -0.054153617 -0.040653534
-0.04066674 -0.02558124 0.08322742 -0.036997326 -0.009945192 -0.038087156 0.02316983 -0.05519358
0.08090568 -0.033512067 0.028883487 0.08367263 0.018036356 -0.08696938 -0.07409942 -0.008389823
0.024387546 0.00030952497 -0.011997853 -0.06604214 0.023872664 0.08238904 0.007178647 -0.06379939
0.021882972 -0.053994596 -0.074056484 0.004173625 0.041976847 4.5068562e-05 0.014585793 -0.070420295
-0.033104114 -0.01991282 0.03673924 0.0453462 -0.039378457 0.057374667 -0.046573512 -0.083891876
-0.08290755 0.029814161 0.0017472964 0.038837407 0.0070317825 0.057408623 -0.0384183 -0.027523473
0.03522782 -0.020627901 0.042873688 0.050860293 0.024973216 0.007464597 -0.026712837 -0.08500528
-0.034490272 0.039216183 0.022226838 -0.08365419 -0.03309925 0.04064035 -0.009810841 0.054021917
-0.08329681 0.087036714 -0.06748316 -0.040242907 -0.0066159293 0.08329611 0.045817338 -0.027699936
0.008587798 -0.018724443 -0.0706932 -0.049066454 0.00702282 0.07474349 -0.016161948 0.04930675
0.02810885 0.02666106 -0.020834714 -0.012393273 0.057101168 -0.08801228 0.008313669 -0.07198087
-0.036413167 -0.034016132 -0.052630182 0.077342235 -0.035423234 -0.010198768 0.087875344 -0.031455837
-0.06394207 0.006156683 0.079855375 -0.006162662 -0.046308007 0.05829325 0.04409984 0.01966467
-0.011974282 -0.03207246 0.039637014 -0.038574945 -0.05206876 0.053636782 0.024003685 0.05567091
-0.025023555 -0.074577786 -0.079253346 0.00626305 0.01251228 -0.06183652 0.083725385 -0.0141370585
0.082450375 -0.021299696 0.020709865 -0.06927578 -0.049109727 -0.070702925 0.083889335 -0.03046116
-0.017643996 0.058670513 0.07494376 0.08579114 0.075350344 -0.0017482361 0.03074735 0.026965773
0.08772945 0.02708042 -0.05745253 0.0114585385 -0.076665826 -0.039966494 0.06952345 0.004433288
0.05596921 0.014250483 -0.0042970562 0.03626126 -0.082582295 -0.009142757 0.03040146 -0.0063042

net.4.bias f4 [256]
00000000: 85b8 9ebc e72e 9bbd 5c5c debc 2a3c 5c3d
00000010: ed49 423d c2f6 8abc ea8d 1c3d 6c88 fc3c
00000020: 8d00 873c 841d 133e f17f ac3c ba74 423e
00000030: 535d fdbc 8087 cb3d 7a62 42bd 4368 613d
00000040: ac80 7abd a833 d43e 6e11 103f 1b6b 5d3d
00000050: 7be4 4ebc cbda 0f3e 332f f73c c473 1a3d
00000060: f5f7 ff3d 5c48 37bc cef4 623d 3561 65bd
00000070: 472b de3e 0e99 99bb b898 d03e 5ea7 013e
00000080: 3b57 d63e 2be1 88bd 3dab ca3c dc9b b9bd
00000090: bd47 a7bc 6263 7bbc 0822 743d 14dd 103e
000000a0: 5342 023c 0480 12be a465 793c c3f6 e33e
000000b0: 0b7d 8bbd ea4e 91bd 2295 8e3c 2f20 46ba
000000c0: 6043 57bd 7bbd 28bd ab54 de3d 6f9c 4b3e
000000d0: 8724 4b3e 5b4e 1d3e bd8f 86bc 1661 8c3d
000000e0: 6855 843e 18cf 18bc efa6 983e 1d68 533e
000000f0: 6703 3b3d a26c 0f3f 54d4 5cbd 503f 733e
00000100: 1f41 39bd b4e6 aebd aaf0 583b c84d 953a
00000110: c49f bc3e 6e95 e43e 36fa fd3c 00a8 bd3e
00000120: 38c7 2ebb f7d4 8b3c 0a96 003d 5a11 adbd
00000130: 0519 453e c297 703e 17ed d93e ae58 fb3c
00000140: cfab 90bd f41d 3abd 714b 593d acf7 8abc
00000150: c019 ff3e 5c8a ad3c ef52 90bd ea45 97bd
00000160: afe1 92bd a1c0 943e 734b c03e a4c6 073d
00000170: f249 4f3e 15ac 5a3d 0d56 99bc c2d2 fd3d
00000180: ad61 243e f5b9 773e 2dab b83c 5af8 6abd
00000190: 62fd 3fbd f5b2 ed3d 543e 2f3e ea11 813e
000001a0: b5af 8d3e 724c 543c 8cdc c23e b51f 33bd
000001b0: fdc1 283d 27e3 44bc b1d7 2b3f 78cd d43d
000001c0: bc58 efbd d042 49bc fd28 883e 910e 16bd
000001d0: 9a95 ec3e 0e93 d0bc 8a30 c83d 48ca 6ebc
000001e0: 276a 85bd e83c 203d 5174 873e a77a de3e
000001f0: d6e3 2abd 9968 cc3c cc0b 043e dce6 70bd
00000200: 49c3 9f3d 83dd 0dbd be85 1f3d 2500 d53c
00000210: bcf0 13bc 1b09 bf3d dd3a 413e 75b9 ab3e
00000220: d6c8 b6bd 20aa 1d3d f376 243d 0a3a d5bc
00000230: 7a4c cd3c 9d0a d0bd afdd 96bc 0a8e 3abc
00000240: a5f8 cb3e d8aa 54bd 7e2f 8cbd 1445 f3bc
00000250: 4375 41bd 1da6 053e 57af ca3c f02e 893e
00000260: 3b98 a23e ddd9 483d a131 1abd 4d20 1b3b
00000270: 0686 943d 2c7b 48bd d5dc f73d a518 b63d
00000280: 5b38 8a3e a191 4c3d d3cb af3e 8f21 343c
00000290: 51c4 c2bc 7673 4b3d 9a14 6c3d 2078 833b
000002a0: 7595 95bd 3241 a8bd ad30 2cbb b722 2dbd
000002b0: b1c4 aa3e 800c bd3e 02a9 b3bd 4345 b63e
000002c0: e8cf 79bc d957 4b3c e4f6 8839 5519 cebd
000002d0: ca6f 3b3d b2db 173e 1e4b 81bd bbdd 633e
000002e0: 4a60 8cbd fdcb 2c3d 59c7 e03c 8d94 99bd
000002f0: 9794 533e eedb 58bd f0e2 91bd db8a 8c39
00000300: 7282 303d 2ea2 cf3e 76bf 293d a857 d63d
00000310: 7f80 2dbd 5b39 b038 c2dd 3ebd ea1a a9bc
00000320: d83b b03e 421b a1bd afff b4bd 9bb8 a33e
00000330: ad93 8a3c 8282 c53d cf2d f03d 6919 0e3d
00000340: 9aa6 793d b34a b0bc 7d7e 43bd 413d 193c
00000350: 8607 d63d 1115 a03d 7424 263f 3e99 6e3e
00000360: ff8d 9b3c f8a7 9fbd afd5 a33e 5322 86bd
00000370: bb1d 9abd e42b 943e 4ee2 673e fecd 7e3e
00000380: f6c5 b6bd 18bf 30bd 9075 b5bd 89fa 1ebd
00000390: b171 a93c a5a4 c5bd 3819 aabc 5583 9f3e
000003a0: 0ba9 6c3e 0015 d7bd db1b 95bd e8d2 803e
000003b0: b0cf 203e cd7a 57bc f7e1 86bd 0f50 843e
000003c0: 0ad5 7bbd b378 04bd 3b2e 06bd d175 6c3e
000003d0: d353 c5bc 2e7d b5bd 4dcd 2a3d 0bd1 fcbc
000003e0: a4dc 983d 9527 a3bd dc6b 8bb9 d1b1 5bbc
000003f0: 075f bc3e 1d05 8cbc 3a4a 493e 4b6e cb3d
-0.019375095 -0.07577305 -0.02714365 0.053768314 0.047433782 -0.016963366 0.038221277 0.03082677
0.016479755 0.14366728 0.021057101 0.1898984 -0.03092829 0.09937954 -0.047457196 0.055031072
-0.061157867 0.4144566 0.56276596 0.05405722 -0.012627716 0.14048307 0.030173874 0.03770806
0.12498466 -0.011186685 0.055409245 -0.056000907 0.43392393 -0.004687435 0.40741515 0.12661502
0.41863427 -0.066835724 0.024739856 -0.09062931 -0.02041995 -0.015343519 0.059602767 0.14146835
0.007950383 -0.14306647 0.015221987 0.44524202 -0.068109594 -0.0709513 0.017405096 -0.00075578963
-0.05255449 -0.041196328 0.10855993 0.19883893 0.19838153 0.15361921 -0.016425962 0.06854455
0.2584641 -0.009326719 0.2981486 0.20645185 0.04565754 0.56025136 -0.05391343 0.2375462
-0.04522812 -0.08540097 0.0033102431 0.0011390978 0.36840641 0.44645256 0.031003099 0.37042236
-0.0026669037 0.017069323 0.03139309 -0.08450575 0.19247825 0.23495391 0.42563698 0.030681934
-0.0706402 -0.04543872 0.053050462 -0.016963802 0.49824333 0.021184139 -0.07047068 -0.07386382
-0.07171952 0.29053214 0.37557563 0.033148423 0.20243052 0.053386766 -0.01871779 0.123937145
0.16052885 0.2419203 0.02254256 -0.057365753 -0.046872504 0.11606399 0.1711362 0.2520898
0.27673116 0.012957679 0.3805889 -0.04373141 0.041200627 -0.012017048 0.67125994 0.103907526
-0.116868466 -0.012283996 0.26593772 -0.036634985 0.46207887 -0.025460746 0.09774883 -0.014574595
-0.065143876 0.039120585 0.2645593 0.4345295 -0.041721188 0.02495222 0.12895125 -0.058813915
0.078009196 -0.03463508 0.038945906 0.026001045 -0.0090295635 0.093279086 0.18870111 0.3353993
-0.08925025 0.038492322 0.0401525 -0.026028652 0.02506088 -0.10158274 -0.018416254 -0.011386404
0.39838138 -0.05192074 -0.06844996 -0.029696025 -0.04723097 0.13051648 0.024741812 0.26793623
0.31756768 0.049035896 -0.037644986 0.0023670376 0.072521254 -0.04894559 0.12102667 0.08891419
0.2699612 0.04994357 0.34335193 0.010994329 -0.023775252 0.04967066 0.057636835 0.0040121228
-0.07303897 -0.0821556 -0.002627413 -0.042269435 0.3335319 0.369236 -0.0877247 0.35599717
-0.015247323 0.012411081 0.0002612389 -0.100634255 0.045760907 0.14829901 -0.063131556 0.22252552
-0.06854303 0.042186726 0.027438806 -0.07499037 0.20662151 -0.052944116 -0.07123363 0.00026806336
0.043093152 0.4055342 0.041442357 0.10465938 -0.04235887 8.403017e-05 -0.046598203 -0.020642716
0.34420657 -0.07866527 -0.0883783 0.3197678 0.01691612 0.09644033 0.11727487 0.0346922
0.0609499 -0.021519994 -0.04772805 0.009352983 0.10450654 0.07816518 0.64899373 0.23300645
0.018988607 -0.07795709 0.31998965 -0.065495156 -0.07525202 0.28939736 0.22644922 0.24883267
-0.08924477 -0.04315099 -0.08860314 -0.038813148 0.020684095 -0.09650544 -0.020763978 0.31154886
0.2311136 -0.10502052 -0.07280704 0.2516091 0.15704226 -0.013151837 -0.06586068 0.2584233
-0.061482467 -0.03234167 -0.032758933 0.23091818 -0.024087822 -0.08861767 0.041699696 -0.030861398
0.07463959 -0.07966534 -0.00026592507 -0.013409094 0.3679125 -0.017092282 0.19657221 0.09933146

net.6.weight f4 [1, 256]
00000000: f612 ed3c d28f 1bbd 15fb 9cbd 1275 fe3d
00000010: c088 903d 76c7 faba d9ef 57bd 903e a0bc
00000020: 2d4d 91bd 8ebe c83d bd97 173e d7b4 153e
00000030: 6645 01bd d0ce 123e bcaa 8b3d 5d34 c83c
00000040: 34af be3b d905 ae3e 8af9 023f a134 f43d
00000050: 2266 b4bd e7b6 ae3d 6c12 59bc 91a6 dc3b
00000060: 0466 1b3e b27f 33bc c374 043d 067d 74bc
00000070: 64c8 cb3e a204 453d cab5 bd3e c1c1 1a3e
00000080: 019c 9f3e 1beb 41bd 8d9e 6f3d c585 12bd
00000090: d999 a4bc a9c1 023c 33b6 953d 0e2f 3b3e
000000a0: f7b4 c63d 002d c63c 540a c63d 2ef1 d23e
000000b0: 66e6 d9bc 95cc 3e3a d0b0 ad3d 97fc 0a3d
000000c0: 57bf cebc 7fbf 0abd 27f2 9e3d 39f7 1c3e
000000d0: ab68 243e 8cb9 283e 5803 a93b 0a52 843d
000000e0: 960f 883e c74b 443c c9f9 773e f3bc 383e
000000f0: 2a0f 463d 5ac6 063f 536d 963c 2554 553e
00000100: c3da 9fbc 62f6 233d f7f8 06bb 6d0e 6a3d
00000110: d21f b73e 6e5f ca3e 3a2e ec3c 28a9 c03e
00000120: 6673 a03d 1cab d53c 3663 343e e10a 97bc
00000130: 3053 033e ce22 4f3e 0c1f d23e 8df5 293c
00000140: 118b 0dbd b2ec 6d3d 75e4 a93d f03c d63c
00000150: aaa2 ff3e 3b6b 18bc 4816 babc 3c58 05bd
00000160: 6d0d 47bd 7572 963e f95f 9e3e 0922 053d
00000170: 8cfc 103e 4d91 dc3b 2f95 dc3c dfec 8a3b
00000180: 2ad2 cf3d 203d 703e 3355 f0bc a9b4 763d
00000190: 4bed 08be 97d2 543d 5143 193e ca3f 173e
000001a0: 4eda 493e 2918 c93c 1db1 bc3e 7444 3bbd
000001b0: 0be2 993d f647 4b3d 6ea2 293f cda7 2b3e
000001c0: 44d2 933c 2b8f 3cbd 30f5 883e 8593 4b3d
000001d0: 21fc f83e 161e 46bd fbf1 963d 4bdd 16bd
000001e0: 5cdb 6c3c a06d 6b3d cfbc 433e fd7e ca3e
000001f0: 22ec af3b 3848 803d e71d be3d 3dc2 55bd
00000200: 8e95 2c3e 6dab fabb 7d60 c8bb e810 513d
00000210: d3af 2e3d f340 463d 70ba 243e 7018 963e
00000220: d422 e4bc 646c 6cbd 6fae 963d c10f 193b
00000230: a6ca 1b3b 4394 863c c9fb 6ebd 9e4f 083a
00000240: fa26 cc3e 228a ac3b dced dfbc ae09 d03c
00000250: b132 0a3c 1f76 f03d 8242 263d 1873 753e
00000260: d941 943e 999c a1bd b1e0 94bc 2650 2b3d
00000270: a459 6cbb e5d4 7c3d 2cc8 e63d 9b6e f53d
00000280: 1cca 6d3e 9bd6 c83d 87dd 923e 432d 81bc
00000290: 223f 79bd 88c9 723d 1e0f ad3d 605b ebbc
000002a0: 92fa adbc 47b7 783c 5cd3 c73c 7381 c3bd
000002b0: 4c79 863e d3d2 b73e ea86 a13c 95e1 ba3e
000002c0: cb7e e3bb c306 c3bd 134e 52bc 0e54 8dbc
000002d0: e43c 0539 93a0 bb3d c9fe bdbb e5e8 543e
000002e0: 01ef 783d 137c 2cbc b86c 02bd 7753 81bc
000002f0: a7dc 463e 2d11 acbd 657b 7ebd f88c 863d
00000300: 4de3 38bc b1c5 9f3e 5e94 023e 97eb 893d
00000310: 84de e53c 79fe adbc 55cb c93c cb52 95bc
00000320: 94e8 9e3e 0cf3 16bd 0ea3 293c e413 853e
00000330: 49e3 623d b67b b33d 53c7 553e ffe3 893d
00000340: 4e4a 6b3d 73dd 223c 22b6 f63c 8ef3 39be
00000350: 8e92 ce3d 33ea babd e398 133f d2cc 803e
00000360: 61c3 eb3b 5454 65bd 0f63 8a3e 5c5e c03c
00000370: 7774 be3d 44c3 8a3e 5580 353e a145 773e
00000380: 5703 c7bb c588 47bd 3b7e fdbd a00d 04ba
00000390: 891d 5bbd a7fa 98bc 8e0d 9d3c c7bb 8c3e
000003a0: a266 653e e0ec 1ebd 1b83 a6bb cbbf 593e
000003b0: c635 853d c49b 38bc eb42 4dbd 6516 843e
000003c0: ff71 40bd 918c 0a3d d87a 75bc eed8 4a3e
000003d0: 1290 4b3d 4c52 d33c 1f4b 9a3d bd2f 2fbd
000003e0: 677a a93d ca5f 29bd ab40 793c 51aa 2a3d
000003f0: 915f cb3e b9ca df3d 6575 793e 32b4 f73d
0.028939705 -0.037978955 -0.076650776 0.12424673 0.07057333 -0.001913293 -0.05271897 -0.019561082
-0.07094798 0.098019704 0.14803977 0.14619766 -0.031560324 0.14336705 0.068196744 0.024439031
0.0058192257 0.33988836 0.51162016 0.11924101 -0.08808543 0.085309796 -0.013249021 0.0067337235
0.15175635 -0.010955738 0.032337915 -0.014922386 0.39801323 0.04810012 0.37052757 0.15112974
0.3117371 -0.047343355 0.058500815 -0.035772104 -0.020092892 0.0079807425 0.07310142 0.18279669
0.09702485 0.02419138 0.09669939 0.4119963 -0.02659912 0.000727841 0.0848099 0.033932295
-0.025237722 -0.03387403 0.07761031 0.15328683 0.16055553 0.1647703 0.0051578693 0.0646096
0.2657439 0.011980957 0.24216379 0.18040828 0.048354305 0.5264641 0.018362677 0.2083288
-0.019513493 0.04002989 -0.0020595172 0.057142664 0.35766464 0.39525932 0.028830636 0.37629056
0.078345105 0.026082568 0.17615971 -0.018437805 0.12824702 0.2022812 0.41039312 0.010373485
-0.034556452 0.05808706 0.08295528 0.026152104 0.4992879 -0.0093029095 -0.022715703 -0.03255485
-0.04859679 0.293842 0.30932596 0.03250316 0.14158839 0.0067311884 0.026926605 0.004239663
0.101475075 0.23460817 -0.029337501 0.060230885 -0.1337177 0.051958647 0.14967085 0.14770427
0.19712183 0.024547653 0.36853877 -0.04571958 0.075138174 0.049629174 0.66263473 0.1676323
0.018044598 -0.046034973 0.26749563 0.049701232 0.4862986 -0.048368536 0.07370373 -0.036832135
0.014456596 0.057477593 0.19114994 0.3955001 0.0053687254 0.06263775 0.09283047 -0.052187193
0.16853926 -0.00764983 -0.006115018 0.051041514 0.042648148 0.048401784 0.16086745 0.2931552
-0.027848639 -0.057720557 0.07357489 0.0023355337 0.002377191 0.016428119 -0.05834559 0.0005199852
0.39873487 0.00526549 -0.0273351 0.02539524 0.008434937 0.1174128 0.04059077 0.23969686
0.28956488 -0.07891197 -0.018173547 0.041824482 -0.0036064172 0.06172647 0.112686485 0.11983987
0.2322163 0.09806558 0.28684637 -0.015768653 -0.060851224 0.059274226 0.08450149 -0.028730094
-0.021237645 0.0151804155 0.024392776 -0.09546175 0.26264417 0.35903034 0.019717652 0.3650023
-0.006942605 -0.09522774 -0.012835997 -0.017251994 0.00012706552 0.091614865 -0.005798195 0.20791967
0.060774807 -0.0105276285 -0.031841964 -0.01578687 0.1942011 -0.084017135 -0.062129397 0.065698564
-0.0112846615 0.31205514 0.1275191 0.06734388 0.028060205 -0.021239506 0.02463309 -0.018227955
0.31036818 -0.03685288 0.010353817 0.25991738 0.055392537 0.0876383 0.20876817 0.0673294
0.05744391 0.009940493 0.030116145 -0.18159315 0.10086547 -0.09126701 0.5765516 0.25156265
0.007194922 -0.055988625 0.270287 0.023482494 0.09299558 0.271021 0.17724736 0.24147655
-0.006073396 -0.048714418 -0.12377592 -0.00050374307 -0.053494964 -0.018674208 0.019171502 0.27487013
0.22402433 -0.03880012 -0.005081547 0.2126457 0.06504397 -0.011267606 -0.050112646 0.25798336
-0.046983715 0.03382546 -0.0149829015 0.19809315 0.049697943 0.025796078 0.075338595 -0.042770136
0.082752995 -0.041351117 0.015213172 0.041666333 0.3972135 0.10927338 0.24361189 0.120949164
